model.pth (torch, 4999 bytes, 8 tensors)

weight f4 [1, 1, 2]
00000000: 7117 c2be 0bed bf3f
-0.3790851 1.4994215

weight_ih_l0 f4 [16, 1]
00000000: 9d4a 72bf b1f5 853f 8400 713f 7342 e43e
00000010: a483 de3e b0a6 bf3d 9422 bd3e 50ae 8a3d
00000020: ba2e 9eba 3acd 14bf 4e43 0b3f 44e6 ddbe
00000030: d1ab 74bf eb6c 823f 096b 243f 9751 2a3f
-0.946451 1.0465604 0.9414141 0.44581947 0.4345981 0.09357965 0.36940444 0.06771529
-0.0012068369 -0.5812565 0.54399574 -0.4333974 -0.9557467 1.0189489 0.6422582 0.66530746

weight_hh_l0 f4 [16, 4]
00000000: fcf3 4fbe aed2 a93e 2a14 cabe 8c09 6cbe
00000010: 6c93 10be feec 99be f04b 413d 8ad8 fcbe
00000020: 2832 e73e c076 d9be 96a3 c53e c869 aa3d
00000030: ac3f 26be f831 9e3e 5897 9f3d b0d6 ce3e
00000040: 00e3 5f3d 9878 21be e890 093e 08d8 0abe
00000050: a47a 573e fe8f e43e b6fb 933e 14d5 5fbe
00000060: 9ec7 933e 7038 b73d 7a01 823e 8608 9cbe
00000070: a46a fdbe 0cd1 45be 9c5b c4be d60e d23e
00000080: d878 133e cc13 543e fcec 213e 0082 0ebc
00000090: 0459 c83e 38e4 b5be 20f3 003d f4ba aebe
000000a0: 50e0 1d3e e052 30be 98e2 1c3e 7857 d5bd
000000b0: 0653 d43e 50bb 97be 8aad 98be e6af 98be
000000c0: e241 e63e e49f 2a3e 1056 f63e 4e45 d3be
000000d0: 98eb fdbe fe48 c8be 5a35 acbe 6c61 4f3e
000000e0: b855 373e 76b7 d43e 7434 84be aa84 aebe
000000f0: f8d3 873e e4f3 4ebe 5c5f 9b3e f0fe f2bd
-0.20307916 0.33168548 -0.3946851 -0.23050517 -0.14118737 -0.30063623 0.04719156 -0.49383956
0.45155454 -0.42473412 0.3860137 0.083209574 -0.16235226 0.30897498 0.077925384 0.4039817
0.054659843 -0.15768659 0.13434184 -0.13558972 0.21042877 0.44641107 0.28902978 -0.21858627
0.28863233 0.089463115 0.25391752 -0.30475253 -0.49495423 -0.19318026 -0.38351142 0.41026944
0.14401567 0.20710677 0.15813059 -0.008697987 0.39130414 -0.3552568 0.031481862 -0.3412701
0.154176 -0.17219114 0.15320814 -0.10417074 0.41469592 -0.29635096 -0.298199 -0.298217
0.4497214 0.16662556 0.48112535 -0.41263813 -0.49593806 -0.3911819 -0.33634454 0.20252007
0.17903793 0.4154622 -0.2582127 -0.3408559 0.26528907 -0.20210224 0.3034619 -0.11865032

bias_ih_l0 f4 [16]
00000000: d58a 8abf e9cf 98be cc67 c1be 2e68 b23e
00000010: 387b d83d f489 02be 0298 983e fa07 ae3e
00000020: 9bd3 dcbe 6004 8bbe 48e8 513e 0afb 63be
00000030: 6124 c7bf 2a88 8cbe 8068 c1bd 4c1e 6c3e
-1.0823618 -0.29846123 -0.37774503 0.34845108 0.10570377 -0.12747937 0.29803473 0.3399046
-0.43130192 -0.27151775 0.20498765 -0.22263733 -1.5557977 -0.27447635 -0.0944376 0.23058432

bias_hh_l0 f4 [16]
00000000: a199 b7bf 5bbc 8bbe 36d8 e8bd bd06 15be
00000010: 8630 d9be 3af8 8cbe e60d e0be 4401 a3be
00000020: bfb7 dc3e 5605 b83d f443 cabd ed2f 05bf
00000030: 8c7c dabf a7ad 2f3d 9d48 8a3e 9226 abbe
-1.4343759 -0.2729214 -0.11369364 -0.14553352 -0.42419833 -0.27533132 -0.43760604 -0.31836903
0.43108937 0.08985393 -0.09876242 -0.52026254 -1.7069259 0.042890217 0.27008525 -0.33427864

weight f4 [1, 4]
00000000: f853 14b8 8c53 57bf 7ce0 b83e 5261 f1be
-3.536415e-05 -0.8411186 0.36108768 -0.47144562

hidden f4 [1, 6, 4]
00000000: d7ca 5eb5 f49f 4ebd cfdf 333d 9159 39be
00000010: 6396 6bb5 9c18 75bd 379f 593d e312 42be
00000020: 567d 4bb5 0f2b 4abe 6435 373e 003a 90be
00000030: fa25 66b5 5529 19be f3a6 0b3e 0fdf 81be
00000040: 4dd8 64b5 d4bf 1bbe 27f9 0d3e c2a9 82be
00000050: 5158 6fb5 f73d 05be 725d f33d b338 77be
-8.2996615e-07 -0.050445512 0.043914612 -0.18100573 -8.7763163e-07 -0.059837922 0.053130355 -0.18952517
-7.580578e-07 -0.19742988 0.1789146 -0.2816925 -8.573694e-07 -0.14957173 0.13637905 -0.25365493
-8.525138e-07 -0.15209895 0.13864575 -0.2552014 -8.9162955e-07 -0.13011919 0.11883058 -0.24142723

hidden f4 [1, 6, 4]
00000000: 916b d9b7 828f d7bd 4ca6 9e3d 9a5d c2be
00000010: e329 f2b7 00a0 f8bd 082b bd3d f357 c8be
00000020: 650b 34b8 6c53 a3be e053 8d3e 6e5e 01bf
00000030: d5ea 2cb8 a4dd 82be 6be9 5d3e be01 f2be
00000040: 1c7f 2db8 3da1 84be 5533 613e 33f3 f2be
00000050: 216d 27b8 871c 6abe 5d35 443e 5875 eabe
-2.5918505e-05 -0.10525419 0.07746562 -0.37962037 -2.8868153e-05 -0.121398926 0.09236723 -0.391296
-4.2925956e-05 -0.31899583 0.27603054 -0.50534713 -4.12267e-05 -0.25559723 0.21671073 -0.47266954
-4.1364794e-05 -0.25904265 0.21992238 -0.4745117 -3.9917537e-05 -0.22862445 0.19160981 -0.4579265
