model_LSTM.pth (torch, 170695 bytes, 9 tensors)

weight_ih_l0 f4 [400, 1]
0	0x3c83cd90	0.01608923
1	0xbe62654a	-0.22108951
2	0x3f968452	1.1759131
3	0x3e021da0	0.12706614
4	0xbe629d1e	-0.22130248
5	0x3f5ea510	0.86970615
6	0x3df5b51b	0.11997434
7	0xbed15eea	-0.40892726
8	0x3b01f8fd	0.0019832246
9	0x3e8d4533	0.27591857
10	0xbe634faf	-0.22198366
11	0xbecb0190	-0.3964963
12	0x3e8b3cc5	0.271948
13	0x3ee42485	0.44559112
14	0x3d7ce377	0.061740365
15	0xbd380ba5	-0.04493298
16	0x3f252537	0.6450991
17	0x3f5e16aa	0.8675333
18	0xbe42a3e3	-0.1900783
19	0xbcc65f66	-0.024215411
20	0xbf264b17	-0.6495833
21	0x3f17eae5	0.59342796
22	0xbca94e60	-0.020667255
23	0x3fa58e25	1.2934004
24	0xbf01421b	-0.50491494
25	0xbe552da8	-0.20818198
26	0xbf85d54e	-1.045572
27	0x3efbbb6b	0.49166426
28	0xbf605f1f	-0.87645143
29	0x3f977374	1.1832108
30	0xbe17bd26	-0.14818248
31	0xbf6edace	-0.9330262
32	0x3e3afcf3	0.18260555
33	0xbee013d2	-0.43765122
34	0xbf28c6ef	-0.6592855
35	0x3ec7924d	0.38978806
36	0xbe311a1f	-0.1729512
37	0xbca6f8b0	-0.020382255
38	0x3f2ecc9f	0.68280977
39	0xbe27e2b1	-0.1639507
40	0x3e5c63a9	0.21522392
41	0x3fbd078b	1.4767927
42	0xbeacc295	-0.33742204
43	0xbd9be02d	-0.076111175
44	0xbe9c458c	-0.3052181
45	0xbf7eafca	-0.9948698
46	0x3fa20d04	1.2660222
47	0x3e0f423f	0.13990115
48	0xbecd29f0	-0.40071058
49	0x3f061f7f	0.5239181
50	0xbe2fa4c6	-0.171527
51	0x3ed3ecbe	0.41391557
52	0x3d8f4100	0.0699482
53	0xbe264e7d	-0.16240878
54	0x3e97429e	0.29543012
55	0x3dd45711	0.10368169
56	0xbeff2684	-0.49834073
57	0xbdc22279	-0.094792314
58	0x3e261282	0.16217998
59	0x3d1ece84	0.038771167
60	0x3da964dd	0.08271191
61	0xbe285a1d	-0.16440625
62	0x3ef5c35e	0.48000616
63	0xbe4d4b4d	-0.20048256
64	0x3f51fee9	0.8202959
65	0x3e0e5b3b	0.13901989
66	0x3f1a6034	0.60303044
67	0xbd581c88	-0.052761585
68	0xbe41d8d7	-0.18930374
69	0xbe888696	-0.2666518
70	0x3dd0cbeb	0.10195144
71	0xbd98f142	-0.07467891
72	0x3d48e455	0.04904588
73	0x3eab1380	0.33413315
74	0x3f48d838	0.78454924
75	0xbe5e385b	-0.21701185
76	0x3ef80674	0.48442423
77	0x3f04c704	0.51866174
78	0x3f5fffb9	0.87499577
79	0xbd57f560	-0.052724242
80	0x3f336883	0.7008135
81	0x3c37c010	0.011215225
82	0x3f027ae1	0.5096875
83	0xbd264d6a	-0.04060117
84	0xbf0b5522	-0.5442678
85	0x3ecac30b	0.3960193
86	0xbde4247b	-0.111397706
87	0x3dba1459	0.09085912
88	0xbdd0fee6	-0.10204868
89	0xbf450171	-0.76955324
90	0xbe5acfcc	-0.2136833
91	0x3f415369	0.755179
92	0xbdc28182	-0.09497358
93	0xbf438e6e	-0.76389205
94	0xbd2034f8	-0.039113015
95	0xbe891409	-0.26773098
96	0xbc449e23	-0.012000593
97	0x3eaa1fa6	0.3322727
98	0xbdf2b966	-0.11851768
99	0x3e82b83a	0.2553118
100	0x3f78d3aa	0.97197974
101	0xbd6fadc7	-0.058515336
102	0x3ee54215	0.4477698
103	0x3f0f4e51	0.55978876
104	0xbeeca2b7	-0.46217892
105	0x3e44fe60	0.19237661
106	0x3eafbbaf	0.3432288
107	0xbe987a05	-0.29780594
108	0xbd9c8ba6	-0.07643823
109	0xbf19c0ec	-0.6006
110	0xbd766f83	-0.06016494
111	0x3d0ccbb8	0.03437397
112	0xbe2925de	-0.16518351
113	0xbd990bb9	-0.07472939
114	0x3edd8c90	0.43271303
115	0x3f104bb2	0.563655
116	0xbdca06ae	-0.09864555
117	0x3eac57a1	0.33660606
118	0xbe5797bf	-0.2105398
119	0xbe981846	-0.2970602
120	0xbeeb23ae	-0.4592566
121	0x3e93b1f3	0.28846702
122	0x3f1cccf8	0.6125026
123	0x3f065c8f	0.52484983
124	0xbdd43468	-0.10361558
125	0x3f4134a4	0.7547095
126	0xbf3940f5	-0.7236474
127	0x3de9a047	0.114075236
128	0x3f28c6b8	0.6592822
129	0xbefe6fa0	-0.49694538
130	0xbf09ed0e	-0.5387734
131	0xbebc814a	-0.3681739
132	0x3c9c306b	0.019066056
133	0x3cd13408	0.025537506
134	0x3e0b8e35	0.13628466
135	0xba9a3e2c	-0.0011767796
136	0x3eecb94f	0.4623513
137	0x3f1cc059	0.61231
138	0x3f32f8db	0.69910973
139	0xbe7cfd85	-0.24706085
140	0x3e6605fe	0.22463223
141	0xbd620284	-0.05517818
142	0xbe4578f7	-0.19284426
143	0x3f2891e7	0.6584763
144	0x3efa6f69	0.48913124
145	0x3f031e25	0.5121787
146	0x3dbeb9e9	0.09312803
147	0x3cd0766d	0.025447095
148	0x3d5274fa	0.05138109
149	0x3d105ae3	0.035242926
150	0x3d2d00b0	0.042236984
151	0x3f186ef2	0.5954429
152	0x3ec443b1	0.38332894
153	0x3d87c6e2	0.06629731
154	0xbe5e4062	-0.21704248
155	0xbdc132b2	-0.094334975
156	0xbcc994b1	-0.024607034
157	0xbe1384e8	-0.14406168
158	0x3e0a2210	0.13489556
159	0x3f850901	1.0393373
160	0x3e3b7154	0.1830495
161	0x3d667adf	0.056269523
162	0xbd38bec6	-0.04510381
163	0x3ebc8975	0.3682362
164	0x3e843ce0	0.25827694
165	0x3e3997e8	0.18124354
166	0x3dcc0fea	0.09963973
167	0xbecca5c3	-0.39970216
168	0x3e358d35	0.17729647
169	0x3eae547a	0.34048826
170	0xbe25a75b	-0.16177122
171	0xbe78abc7	-0.24284278
172	0x3f0c3ad9	0.54777294
173	0xbe5c0c73	-0.21489124
174	0xbeb6af8d	-0.3568081
175	0x3ef30c4a	0.47470313
176	0x3ee52601	0.44755557
177	0x3e177e9e	0.14794394
178	0xbecdae44	-0.40172017
179	0x3e64cd1f	0.22343872
180	0xbb95f36c	-0.0045761373
181	0xbd876daf	-0.06612717
182	0xbeb872d6	-0.36025113
183	0x3f103a38	0.56338835
184	0x3ec75a61	0.3893614
185	0xbd15a9ef	-0.036539014
186	0xbee563cc	-0.448027
187	0x3ed8c876	0.4234044
188	0x3ec24fb2	0.37951428
189	0xbf2095e4	-0.62728715
190	0x3e0b4fde	0.13604686
191	0xbc2cac80	-0.010539174
192	0xbea6fcad	-0.3261465
193	0xbe7df991	-0.24802233
194	0x3e80ae5d	0.2513303
195	0x3e5fb331	0.218457
196	0xbf1290ff	-0.57252496
197	0x3e5b174f	0.2139561
198	0xbd565898	-0.052330583
199	0xbdf36c69	-0.11885912
200	0x3f65b0e4	0.8972304
201	0xbe218762	-0.157743
202	0x3f617a09	0.88076836
203	0x3f24fc04	0.64447045
204	0x3eb56f47	0.3543646
205	0x3f5ecd77	0.87032264
206	0xbf15a698	-0.58457327
207	0xbf106d51	-0.56416804
208	0xbe4e1802	-0.20126346
209	0xbf5a2298	-0.85209036
210	0x3c114c71	0.008868323
211	0xbdf5b2ae	-0.11996971
212	0x3eb61be3	0.3556815
213	0x3f2f5072	0.68482125
214	0xbde7c190	-0.11316216
215	0xbf00555d	-0.50130254
216	0x3fbceeec	1.4760413
217	0xbf84c5d0	-1.0372868
218	0xbf48db5e	-0.7845973
219	0xbdd8ac4c	-0.10579738
220	0x3f4571a3	0.7712652
221	0x3f1b3f0d	0.6064308
222	0x3e6ecaf3	0.23319606
223	0x3f989e08	1.1923227
224	0xbdb45172	-0.08804597
225	0xbf853928	-1.0408068
226	0x3f28eb65	0.65984184
227	0xbf0b40ef	-0.54395956
228	0x3c62016b	0.013794283
229	0xbf9c491a	-1.2209809
230	0x3f800352	1.0001013
231	0x3f83985f	1.0280875
232	0xbebadb8b	-0.36495623
233	0x3d7ba38c	0.061435267
234	0xbf0a4a5d	-0.5401972
235	0xbf7eade5	-0.9948409
236	0x3d209dd9	0.039213035
237	0x3ec5494a	0.38532478
238	0x3f70b413	0.9402477
239	0xbd899c3e	-0.06719254
240	0x3f5a2840	0.85217667
241	0x3f9725d5	1.180842
242	0xbe936f69	-0.28795937
243	0xbe9bb34e	-0.30410236
244	0xbf3297f5	-0.6976312
245	0x3f0eadb8	0.55733824
246	0x3f155e37	0.58346885
247	0xbebc747f	-0.3680763
248	0xbeac1941	-0.33613017
249	0x3ee35b52	0.4440561
250	0xbf4fb55d	-0.81136113
251	0xbf8d541c	-1.1041293
252	0xbed9422a	-0.42433292
253	0x3ebc4cc3	0.36777315
254	0xbd8dbc98	-0.06920737
255	0xbe93b9f3	-0.28852805

weight_hh_l0 f4 [400, 100]
0	0x3e961518	0.29312968
1	0x3eaa8caf	0.33310458
2	0xbda80335	-0.08203737
3	0x3eca802b	0.3955091
4	0x3e34920a	0.17633834
5	0x3e6ae9a2	0.22940686
6	0xbea9212f	-0.3303313
7	0x3f1bc8a8	0.6085305
8	0xbe1109ab	-0.14163844
9	0xbdd82102	-0.10553171
10	0x3e59e910	0.21280313
11	0x3d04f1cd	0.03245716
12	0x3da116f7	0.07865708
13	0xbcf70dc6	-0.030157935
14	0x3e545610	0.20735955
15	0xbf1c58fd	-0.61073285
16	0x3d5a7aeb	0.05333988
17	0xbe812b75	-0.25228468
18	0xbe8e1f2a	-0.2775815
19	0xbd994bf7	-0.07485192
20	0xbe0210c4	-0.12701708
21	0x3d8576d1	0.06516803
22	0xbe1f7072	-0.15570238
23	0x3e9c27f0	0.3049922
24	0xbd5040b2	-0.05084295
25	0xbe049d83	-0.12950711
26	0x3caa15e6	0.020762395
27	0x3dc4b82a	0.09605439
28	0xbedd7524	-0.43253434
29	0xbf076db5	-0.52901775
30	0x3e19ae2f	0.15007852
31	0x3d814a9d	0.063130595
32	0xbd5f191c	-0.054467306
33	0x3d3b155a	0.04567466
34	0xbd3a02fc	-0.045413002
35	0xbe440a7d	-0.19144626
36	0xbd1f807a	-0.038940884
37	0xbdedc6f5	-0.11610214
38	0x3ea609d4	0.32429373
39	0xbdc18b54	-0.09450403
40	0x3d2a62aa	0.041598
41	0x3d9f6ad1	0.077840455
42	0xbd0590af	-0.032608684
43	0xbea5860d	-0.32328835
44	0xbf05519b	-0.52077645
45	0xbe258ecd	-0.16167755
46	0xbe94bd86	-0.29050845
47	0xbd48b23b	-0.0489981
48	0xbcc90bb4	-0.024541713
49	0x3c0c96c6	0.008580869
50	0x3d36433a	0.044497706
51	0xbe82253f	-0.25419042
52	0xbd8e592f	-0.06950604
53	0x39ff8ddd	0.00048743087
54	0x3cde3c0f	0.027128248
55	0x3e3379bc	0.17526907
56	0x3ae04452	0.0017110205
57	0xbba425ac	-0.0050093736
58	0x3d9ffd6e	0.0781201
59	0xbe471dc9	-0.19444956
60	0xbe626588	-0.22109044
61	0x3e516d2b	0.204518
62	0x3d9dd6b9	0.07706971
63	0x3e453f07	0.19262324
64	0x3e6c9684	0.23104292
65	0x3e270337	0.1630982
66	0x3dea14ba	0.114297345
67	0xbcfeadb3	-0.031088686
68	0x3d9503ec	0.07276139
69	0x3e57f907	0.2109109
70	0x3e3717b6	0.17880139
71	0xbe45f760	-0.19332647
72	0x3e903f3e	0.2817325
73	0xbdb787ab	-0.089614235
74	0xbd997f4e	-0.074949846
75	0x3dc35cbf	0.09539174
76	0x3e87ac45	0.2649862
77	0x3f0fe529	0.56209046
78	0x3a51ea78	0.0008007656
79	0xbe51312f	-0.20428918
80	0xbef878de	-0.48529714
81	0x3d6ebeaf	0.05828732
82	0xbe87ac52	-0.26498657
83	0xbe802ee8	-0.25035787
84	0x3d4f51d3	0.050615143
85	0xbe61c081	-0.2204609
86	0x3edb8834	0.42877352
87	0x3f0733b0	0.52813244
88	0xbe95af21	-0.29235175
89	0xbd863ea7	-0.06554919
90	0xbe250645	-0.16115673
91	0x3e03623a	0.12830439
92	0x3e32b339	0.1745118
93	0x3dfd4712	0.12367071
94	0x3da14266	0.078739926
95	0x3ed69da9	0.4191716
96	0xbdbfc3b7	-0.093635015
97	0x3e15c2b8	0.1462506
98	0x3f2fe8c1	0.6871453
99	0xbec34545	-0.38138786
100	0xbee9e500	-0.45682526
101	0x3e8729a5	0.2639896
102	0x3e21da03	0.15805821
103	0xbe9b88be	-0.30377764
104	0xbe093c99	-0.13402022
105	0xbf0df7c3	-0.5545618
106	0x3eab5c0b	0.3346866
107	0x3e321101	0.17389299
108	0x3e66db15	0.2254451
109	0x3e2e72a3	0.17035918
110	0x3cbf3e2a	0.023345072
111	0xbeec8163	-0.46192464
112	0x3de2eeee	0.110807285
113	0xbefba026	-0.4914562
114	0xbc5631cd	-0.013073397
115	0xbd56f17c	-0.05247639
116	0xbe80de10	-0.2516942
117	0x3f031fa0	0.5122013
118	0x3e8085de	0.25102133
119	0x3e30b1c4	0.17255312
120	0xbde9c7f3	-0.114150904
121	0xbe85b5e9	-0.2611535
122	0xbf2640be	-0.6494254
123	0xbf0f540a	-0.5598761
124	0xbed0ee98	-0.40807033
125	0x3d94a8e8	0.07258779
126	0x3f0cf8bd	0.55067044
127	0x3e6ec331	0.23316647
128	0x3ee91689	0.45525005
129	0x3eba8369	0.36428383
130	0x3e893cb2	0.2680412
131	0x3d09ce11	0.033643786
132	0xbe8e094f	-0.27741477
133	0xbef2d4e0	-0.47428036
134	0x3e422573	0.18959598
135	0x3ebca6ce	0.36846012
136	0x3ec5b5d4	0.38615286
137	0x3e3d8252	0.18506745
138	0xbe19808b	-0.14990442
139	0xbf1196af	-0.5687055
140	0xbe82f13f	-0.2557468
141	0xbdc6b9a1	-0.09703375
142	0x3e9007e9	0.28131035
143	0x3e6e062f	0.23244546
144	0x3e8c3474	0.2738377
145	0xbe021655	-0.12703831
146	0xbdd4aef2	-0.10384931
147	0x3f16652e	0.5874814
148	0xbd39afbc	-0.04533361
149	0x3ea8c729	0.32964447
150	0xbd1153f9	-0.035480473
151	0x3e97bbb3	0.2963539
152	0xbd1f2bc3	-0.038860094
153	0x3e6dea6d	0.23233958
154	0x3ed65b18	0.41866374
155	0x3f01e42c	0.5073879
156	0xbdff24d3	-0.124581955
157	0x3f0f8fde	0.560789
158	0xbe9a58d9	-0.3014591
159	0x3efd1c7c	0.49435794
160	0x3f293dc1	0.66109854
161	0xbcb6c2f1	-0.022309752
162	0xbf127d75	-0.5722268
163	0x3e8731af	0.26405093
164	0xbf0420b6	-0.5161241
165	0xbebfa008	-0.37426782
166	0xbf1b87ed	-0.6075428
167	0x3e31586f	0.17318891
168	0x3f0a833e	0.5410651
169	0xbe0e59fe	-0.13901517
170	0x3ecda0c9	0.40161732
171	0x3eaa2218	0.33229136
172	0xbef923e5	-0.48660198
173	0xbe82ee17	-0.25572273
174	0xbeed8652	-0.4639154
175	0xbdf64781	-0.12025357
176	0xbe961424	-0.2931224
177	0xbeb34ff7	-0.35021946
178	0x3f27a574	0.65486836
179	0x3f02fda5	0.5116828
180	0x3e1ece5a	0.15508404
181	0x3dd9f00d	0.10641489
182	0x3e308283	0.17237286
183	0x3f18e6cf	0.59727186
184	0xbde9631d	-0.113958575
185	0x3e90bcd1	0.28269055
186	0x3dca4127	0.09875708
187	0xbe8c1cd8	-0.27365756
188	0x3eed8b2b	0.4639524
189	0xbead049c	-0.3379258
190	0xbd1737cd	-0.03691845
191	0xbe561383	-0.2090588
192	0xbec593ed	-0.3858942
193	0x3f054ab4	0.5206711
194	0xbd1252e8	-0.035723597
195	0x3d4f217c	0.050569043
196	0xbe9317f4	-0.28729212
197	0xbeb6b60b	-0.35685763
198	0xbdcbd4b0	-0.09952676
199	0x3d9dfc4b	0.07714137
200	0xbd7d7ccd	-0.061886597
201	0xbe3ae567	-0.18251573
202	0x3eca2383	0.39480218
203	0xbdfb4ab0	-0.12270105
204	0x3d9ee8b5	0.07759229
205	0x3e01ec68	0.12687838
206	0x3e01dbc3	0.12681489
207	0xbf0573c9	-0.521298
208	0x3e34da68	0.1766144
209	0xbefcf9a4	-0.4940921
210	0x3b9f6dd1	0.004865386
211	0x3dbe6f2a	0.092985466
212	0x3f1e13b8	0.6174884
213	0x3e8619f1	0.26191667
214	0x3eb4f339	0.35341814
215	0xbdf79cec	-0.12090477
216	0xbdd5625f	-0.104191534
217	0xbe81c3d4	-0.25344718
218	0xbea18740	-0.315485
219	0x3da09a9d	0.0784199
220	0xbae45438	-0.0017420119
221	0x3e8a5854	0.27020514
222	0xbf162ed9	-0.58665234
223	0xbea174ab	-0.31534323
224	0xbcd88205	-0.026429186
225	0x3d14168c	0.036154315
226	0x3ea3ace5	0.31967846
227	0xbe2b0401	-0.16700746
228	0xbe05a4f4	-0.13051206
229	0xbeb081fb	-0.34474167
230	0xbd84c07a	-0.064820245
231	0x3eca1dbc	0.3947581
232	0xbf03df3a	-0.5151249
233	0x3ba33299	0.004980397
234	0xbe2a89a0	-0.16654062
235	0xbde8de4b	-0.11370524
236	0xbebee4ef	-0.37284037
237	0x3d863c8e	0.06554519
238	0xbe6dac8c	-0.23210353
239	0xbdd0a24e	-0.10187207
240	0x3e9293c0	0.2862835
241	0xbe31d5b2	-0.17366675
242	0xbdd56655	-0.10419909
243	0x3e53687a	0.20645323
244	0x3de47ba1	0.11156393
245	0x3e7a9267	0.2446991
246	0x3e4fd97a	0.20297804
247	0xbd7d7fe6	-0.06188955
248	0xbe6734f2	-0.22578791
249	0x3f15ca0e	0.58511436
250	0xbf475c26	-0.7787498
251	0x3e17eb23	0.14835791
252	0xbec4dbc1	-0.3844891
253	0x3d868d4e	0.065699205
254	0xbf6f29f5	-0.93423396
255	0xbebd65dc	-0.36991775

bias_ih_l0 f4 [400]
0	0xbe8c2663	-0.27373037
1	0xbebca843	-0.36847124
2	0xbe13ba85	-0.1442662
3	0xbebfb331	-0.374414
4	0xbe51b4f6	-0.20479187
5	0xbe020766	-0.12698135
6	0x3e06ec63	0.13176112
7	0xbf1ce011	-0.612794
8	0xbec64dc0	-0.38731194
9	0xbe78b2b4	-0.2428692
10	0xbf2aaf0d	-0.66673356
11	0xbf29585f	-0.6615047
12	0xbea0665b	-0.3132809
13	0xbf48372c	-0.78209186
14	0x3da7f92e	0.08201824
15	0x3d5704bb	0.052494746
16	0xbd9d53f6	-0.0768203
17	0xbeabf2a8	-0.3358357
18	0xbe2c8b8f	-0.16850112
19	0xbebc0528	-0.36722684
20	0xbec4c85c	-0.38434112
21	0x3e330551	0.17482497
22	0xbe0faa09	-0.14029707
23	0xbe0864fb	-0.13319771
24	0xbeb9c44d	-0.36282578
25	0x3d35cfa8	0.04438749
26	0xbdb4cce6	-0.08828144
27	0xbe82be9d	-0.2553605
28	0xbbbbf618	-0.005736124
29	0xbda630e0	-0.08114791
30	0xbe84b914	-0.25922453
31	0xbe8b2855	-0.27179208
32	0xbf4b3012	-0.79370224
33	0xbf55697c	-0.8336408
34	0xbe9c2ff8	-0.30505347
35	0xbeea3f6b	-0.4575151
36	0xbefe2ff9	-0.49645975
37	0x3e792a27	0.24332486
38	0xbe2b53eb	-0.16731231
39	0xbf511b06	-0.8168186
40	0xbe99420b	-0.299332
41	0xbea811bb	-0.32826027
42	0xbddabc92	-0.10680498
43	0xbec6f40d	-0.3885807
44	0xbee002d6	-0.43752164
45	0xbec454e3	-0.38346013
46	0xbebc04e7	-0.3672249
47	0x3d78ecb3	0.06077261
48	0xbf2270a1	-0.6345311
49	0xbf511adb	-0.81681603
50	0xbd270d67	-0.040784266
51	0xbe89140f	-0.26773116
52	0xbe072c20	-0.13200426
53	0xbf11e0ef	-0.56983846
54	0xbebcb078	-0.36853385
55	0xbed3338e	-0.4125027
56	0xbf35a387	-0.7095265
57	0xbf141239	-0.57840306
58	0x3cb87862	0.02251834
59	0xbe745621	-0.2386098
60	0xbf76f9c6	-0.96474874
61	0xbe953c6f	-0.2914767
62	0x3e2f5305	0.17121513
63	0x3c2e6a42	0.010645451
64	0xbece0127	-0.40235254
65	0xbedb7d2a	-0.4286893
66	0xbe69b4e8	-0.22822917
67	0xbddbddf3	-0.10735693
68	0x3e5bf5f4	0.21480542
69	0x3e5e308c	0.21698207
70	0xbf579e8b	-0.8422629
71	0xbe76144c	-0.2403118
72	0x3ca7e112	0.020493064
73	0xbf11ac56	-0.5690359
74	0xbead60de	-0.33862966
75	0xbe59a2d3	-0.21253519
76	0x3db9744f	0.09055387
77	0x3d73b691	0.05950028
78	0xbe5b2d31	-0.21403958
79	0xbf08d142	-0.534443
80	0x3e3e33a9	0.18574394
81	0xbf4fcd97	-0.8117308
82	0x3e03db70	0.12876678
83	0xbe909de2	-0.28245455
84	0xbf1c0b82	-0.6095506
85	0xbe600175	-0.21875556
86	0xbf46e0c9	-0.77686745
87	0xbe55d88e	-0.2088339
88	0xbe02ed35	-0.127858
89	0xbe11cae9	-0.1423756
90	0x3f3bc795	0.73351413
91	0xbe6a7c94	-0.22899085
92	0xbf0576c8	-0.5213437
93	0xbed27b20	-0.41109562
94	0xbf1915da	-0.5979897
95	0xbec205b2	-0.3789497
96	0xbe98b705	-0.29827133
97	0xbf0a68f4	-0.54066396
98	0xbe580234	-0.2109459
99	0xbe60b2a9	-0.21943153
100	0xbe433bbe	-0.19065759
101	0xbef2ef94	-0.4744841
102	0x3ef07c7a	0.46969968
103	0xbe3994b6	-0.18123135
104	0xbd9dc23f	-0.07703065
105	0xbe221bb5	-0.15830882
106	0xbce9ac58	-0.028524563
107	0xbef2a388	-0.4739039
108	0x3cc6baa1	0.024258913
109	0x3d9e2f74	0.07723895
110	0xbe817923	-0.25287732
111	0xbe7d16d0	-0.24715734
112	0xbe271ecf	-0.16320346
113	0xbe052e4e	-0.13005945
114	0xbdc07e80	-0.09399128
115	0xbe6d800b	-0.23193376
116	0x3eacb5bd	0.33732405
117	0xbe8bf5ff	-0.27336118
118	0xbdd30352	-0.10303368
119	0x3e7618d8	0.24032915
120	0xbdd5f2fc	-0.10446736
121	0xbe2c6adf	-0.16837643
122	0x3e84875f	0.2588453
123	0xbe3e64fd	-0.18593211
124	0xbe42c16a	-0.19019094
125	0xbed2c4cc	-0.4116577
126	0xbe89361f	-0.26799104
127	0x3e16df9e	0.1473374
128	0xbe3d9f88	-0.18517888
129	0xbe8f3b25	-0.2797481
130	0x3d1dd478	0.038532704
131	0xbe983db2	-0.2973457
132	0xbebda3c3	-0.37039003
133	0xbef9b3b6	-0.4876992
134	0xbe50356d	-0.2033288
135	0xbe0fdf89	-0.14050116
136	0xbe8428ad	-0.25812283
137	0xbea04477	-0.31302235
138	0x3dd9f3c0	0.10642195
139	0x3a2ecf70	0.0006668484
140	0xbdfa465f	-0.122204535
141	0xbe78fdda	-0.24315587
142	0xbd175ad7	-0.036951866
143	0xbd8de3b7	-0.06928199
144	0xbbfa7edf	-0.0076445187
145	0xbf074d52	-0.52852356
146	0xbe0f5682	-0.13997844
147	0x3c4e5ec0	0.012595832
148	0xbcb72b4a	-0.022359509
149	0xbe89bdf9	-0.2690275
150	0x3dec2ea2	0.11532332
151	0xbe617e09	-0.22020735
152	0x3ea234df	0.31680962
153	0xbe235701	-0.15951158
154	0x3b35ae01	0.0027722123
155	0xbe2fde7f	-0.1717472
156	0xbeb6969c	-0.3566178
157	0xbd8ae0b2	-0.067811385
158	0x3cfb2c8d	0.030660892
159	0x3e11767e	0.14205357
160	0xbeb8c79b	-0.36089787
161	0xbeb1cc2c	-0.34726083
162	0xbd805565	-0.06266288
163	0xbc4856ce	-0.012227727
164	0xbc7400af	-0.014892741
165	0x3db04980	0.08607769
166	0xbea849bc	-0.32868755
167	0xbe553e17	-0.20824467
168	0xbdc8bcbf	-0.098016255
169	0xbd17ea70	-0.03708881
170	0xbe774308	-0.24146664
171	0x3c86ed52	0.016470585
172	0xbde9fba5	-0.114249505
173	0xbe207d2e	-0.15672752
174	0x3cb2c100	0.021820545
175	0xbd14199e	-0.036157243
176	0x3d2e98e5	0.04262628
177	0xbe8f611b	-0.28003773
178	0xbed58b9d	-0.4170808
179	0xbd87f745	-0.0663896
180	0xbe7466ac	-0.23867291
181	0xbe5e50e6	-0.21710548
182	0x3ebb698d	0.36603966
183	0xbdf9a088	-0.12188822
184	0xbbc24564	-0.005928682
185	0x3cfddca5	0.030989
186	0xbd15ae65	-0.03654327
187	0xbdfb5c08	-0.12273413
188	0xbdec2685	-0.115307845
189	0xbf2bb516	-0.6707319
190	0xbd17aa02	-0.037027366
191	0x3e203ab1	0.15647389
192	0xbe231ccc	-0.15928954
193	0xbea2fb81	-0.31832507
194	0x3da8b7b3	0.08238163
195	0xbc67df08	-0.014152296
196	0xbdcb6036	-0.0993046
197	0xbe7bb6dc	-0.24581474
198	0xbdb680d2	-0.08911289
199	0xbebcaa6a	-0.36848766
200	0xbda6755b	-0.081278525
201	0x3dac5a3f	0.084156506
202	0xbdddc358	-0.108282745
203	0x3c516cac	0.012782257
204	0x3c5a1043	0.013309541
205	0x3d3d3b47	0.04619911
206	0xbceb9cf1	-0.028761359
207	0x3d113564	0.035451308
208	0xbd303256	-0.043016754
209	0xbc5f213a	-0.013618762
210	0xbc7913e8	-0.0152025
211	0xbdac6a99	-0.084187694
212	0x3c2abd56	0.010421118
213	0xbda77b53	-0.08177819
214	0xbdaa85b5	-0.08326284
215	0x3e065834	0.13119584
216	0xbce5e395	-0.028062621
217	0x3dcda7bf	0.10041761
218	0xbb6289b2	-0.0034566936
219	0xbd9f5a6f	-0.07780921
220	0xbd227cb0	-0.039669693
221	0x3d7bb512	0.06145198
222	0x3bb41e17	0.005496751
223	0x3d3eca3c	0.046579584
224	0x3d945370	0.07242477
225	0x3c52be24	0.012862716
226	0x3c217d33	0.00985651
227	0xbd869687	-0.065716796
228	0xbd92ae51	-0.071621545
229	0x3d33f943	0.043938886
230	0xbd76e0ea	-0.06027309
231	0xbdfff3e4	-0.1249769
232	0xbbdd9389	-0.0067619723
233	0xbbbd7661	-0.005781934
234	0x3d839307	0.064245276
235	0x3d3a65c0	0.045507193
236	0xbdb86db3	-0.090052985
237	0xbd66da4d	-0.05636053
238	0xbb03bbd5	-0.002010097
239	0x3c8393c3	0.01606167
240	0x3ac69126	0.0015149459
241	0xbe056ad7	-0.13029037
242	0xbd735bbb	-0.059413653
243	0x3c40a9a4	0.0117591955
244	0x3e4ca8b2	0.19986227
245	0x3dced1d4	0.10098615
246	0x3da2866a	0.07935794
247	0x3d04e0ba	0.03244088
248	0xbd28284d	-0.04105406
249	0xbb8fc253	-0.004387179
250	0x3d35091f	0.04419815
251	0x3db19376	0.08670704
252	0xbcbf5001	-0.023353579
253	0x3d0139a5	0.031549115
254	0xbcb9def0	-0.022689313
255	0xbc4fdc1f	-0.012686758

bias_hh_l0 f4 [400]
0	0xbeb340ad	-0.3501028
1	0xbe836ceb	-0.25669035
2	0xbea1f615	-0.31633058
3	0xbeca736b	-0.39541182
4	0xbe984ac3	-0.2974454
5	0xbe80ad70	-0.25132322
6	0x3e25169d	0.16121908
7	0xbf0cf4cd	-0.55061036
8	0xbeb4f032	-0.35339504
9	0xbec5467e	-0.38530344
10	0xbf4c1192	-0.7971431
11	0xbf0dd9a6	-0.5541023
12	0xbed4bdb1	-0.41550973
13	0xbf26ab39	-0.65105015
14	0x3d1735f2	0.03691668
15	0xbd90e6d4	-0.07075277
16	0x3d62d209	0.055376086
17	0xbeaffcea	-0.34372646
18	0xbe145288	-0.14484608
19	0xbea00d43	-0.31260118
20	0xbed50f8c	-0.41613424
21	0x3dbc15f3	0.09183874
22	0xbe6a8933	-0.229039
23	0xbe371afb	-0.17881386
24	0xbe6877d6	-0.22701964
25	0xb816b45b	-3.5930756e-05
26	0xbd5ea006	-0.05435183
27	0xbe55adf7	-0.20867144
28	0xbd7acf90	-0.061233103
29	0xbdc28684	-0.09498313
30	0xbe91069d	-0.28325358
31	0xbe822c1d	-0.2542428
32	0xbf6df7dc	-0.9295633
33	0xbf4be26c	-0.7964237
34	0xbe949e89	-0.29027203
35	0xbee4ee4c	-0.44713056
36	0xbf0dd16c	-0.5539768
37	0x3e98cf32	0.29845577
38	0xbde513bb	-0.11185404
39	0xbf5c201e	-0.85986507
40	0xbea14248	-0.3149588
41	0xbec13106	-0.37732714
42	0xbe1b2455	-0.15150578
43	0xbee21a6c	-0.44160783
44	0xbecb44b5	-0.39700857
45	0xbeff4c30	-0.49862814
46	0xbead784d	-0.33880845
47	0xbcc11649	-0.023570197
48	0xbeeec068	-0.4663117
49	0xbf538d4b	-0.8263747
50	0x3ccfae85	0.025351772
51	0xbe233c3e	-0.1594095
52	0xbe3f7b0c	-0.18699282
53	0xbf14be1f	-0.581026
54	0xbecc4121	-0.3989344
55	0xbeef3258	-0.46718097
56	0xbf184e75	-0.59494716
57	0xbf1157d6	-0.5677465
58	0xbd2dfc73	-0.042477082
59	0xbebdd79b	-0.37078556
60	0xbf574a2d	-0.8409756
61	0xbe919b66	-0.28438872
62	0x3cad5941	0.021160724
63	0x3d8add9c	0.0678055
64	0xbf00293d	-0.50062925
65	0xbf0fd0b9	-0.5617786
66	0xbdde7623	-0.108623765
67	0xbe1bf795	-0.15231164
68	0x3e35d770	0.17757964
69	0x3dc10bf0	0.09426105
70	0xbf52067e	-0.82041156
71	0xbe69c6bc	-0.22829717
72	0x3c714e72	0.0147281755
73	0xbeee404c	-0.4653343
74	0xbee690a2	-0.4503222
75	0xbe74caf9	-0.23905553
76	0x3e2c6ced	0.16838427
77	0x3d904410	0.07044232
78	0xbe281ef5	-0.16418059
79	0xbf19b20a	-0.6003729
80	0x3d30bef5	0.04315086
81	0xbf632fc5	-0.88744766
82	0x3d060009	0.032714877
83	0xbebd0319	-0.36916426
84	0xbf119f80	-0.56884
85	0xbe819da2	-0.25315577
86	0xbf554aa2	-0.83317006
87	0xbe4f79dc	-0.2026133
88	0xbd94056a	-0.07227595
89	0xbe9005ac	-0.28129327
90	0x3f486e99	0.7829376
91	0xbe5fc2be	-0.21851632
92	0xbed3a5a9	-0.41337326
93	0xbead22ff	-0.33815762
94	0xbf146b9f	-0.57976717
95	0xbee7153a	-0.45133382
96	0xbec1961f	-0.37809846
97	0xbee4052f	-0.44535205
98	0xbe356f92	-0.17718342
99	0xbe9c6ca9	-0.3055165
100	0xbd7e10b6	-0.062027656
101	0xbef28708	-0.47368646
102	0x3ece45af	0.4028754
103	0xbd073547	-0.033009794
104	0x3daa2e41	0.083096035
105	0xbdf356d8	-0.118817985
106	0xbd387f89	-0.045043502
107	0xbeb24104	-0.34815228
108	0x3e18cce0	0.14921904
109	0x3d93ce09	0.072170325
110	0xbe4a3306	-0.19746026
111	0xbec8374b	-0.39104685
112	0xbe4c08fe	-0.19925305
113	0x3cf6168a	0.030040044
114	0xbdc335f3	-0.09531774
115	0xbe902466	-0.2815277
116	0x3eacf119	0.33777693
117	0xbe923c04	-0.28561413
118	0xbdfdb1b7	-0.12387412
119	0x3d87dcb2	0.06633891
120	0xbd44d54a	-0.04805497
121	0xbddb40ac	-0.107056946
122	0x3e8e4370	0.27785826
123	0xbe8e8700	-0.27837372
124	0xbe04565b	-0.12923567
125	0xbedd4746	-0.4321844
126	0xbe44212c	-0.19153279
127	0x3d753067	0.059860613
128	0xbe61f2bf	-0.22065257
129	0xbee52731	-0.44756463
130	0x3df37149	0.11886842
131	0xbed9ab1b	-0.42513356
132	0xbea6c51b	-0.32572255
133	0xbefee0e8	-0.49780965
134	0xbec5ab02	-0.3860703
135	0xbdd6b7f3	-0.10484304
136	0xbe80447e	-0.25052255
137	0xbe69f265	-0.22846372
138	0x3e7030d0	0.2345612
139	0x3d378a1d	0.04480945
140	0xbe933853	-0.2875391
141	0xbe8a9209	-0.2706454
142	0xbcedc71a	-0.029025603
143	0x3cd7a580	0.026324034
144	0x3d379938	0.044823855
145	0xbec751af	-0.38929507
146	0xbe646960	-0.22305822
147	0xbce6f260	-0.028191745
148	0xbe007cc4	-0.12547594
149	0xbea0007f	-0.31250378
150	0x3d46d0b8	0.048538893
151	0xbd98cb23	-0.0746062
152	0x3ef3aac4	0.4759122
153	0xbe9c1dcb	-0.3049148
154	0xbbd1c401	-0.0064015393
155	0xbd142d1d	-0.036175836
156	0xbe9ac08e	-0.30225033
157	0xbd9ddf6f	-0.07708632
158	0x3d90e9db	0.070758544
159	0x3e133d55	0.14378865
160	0xbeadfb57	-0.3398082
161	0xbe9233db	-0.28555188
162	0xbdaea175	-0.08526889
163	0x3b9f9d23	0.004871027
164	0x3dec5b25	0.11540822
165	0x3d4ce5f5	0.05002399
166	0xbeb76ee6	-0.35826796
167	0xbe6c9925	-0.23105295
168	0xbe1332f3	-0.14374904
169	0x3c493f65	0.012283181
170	0xbe6edb2e	-0.23325798
171	0x3e37dd59	0.17955531
172	0xbd971213	-0.07376494
173	0xbe0b2108	-0.13586819
174	0x3c15ffac	0.009155195
175	0xbdbda03c	-0.09259078
176	0x3ddc246a	0.10749133
177	0xbe9b0ea6	-0.30284613
178	0xbf03bf5f	-0.51463884
179	0xbcb21abe	-0.021741267
180	0xbe22d428	-0.15901244
181	0xbe955a27	-0.29170343
182	0x3e5cfd92	0.21581104
183	0xbe858232	-0.26075894
184	0xbd124f45	-0.03572013
185	0x3da95f0e	0.08270083
186	0xbdb1615f	-0.0866115
187	0xbe2502bc	-0.16114324
188	0x3d2aa24d	0.04165869
189	0xbf2e7a5f	-0.68155473
190	0xbd074520	-0.033024907
191	0x3d48b495	0.04900034
192	0xbe0e4343	-0.13892846
193	0xbe8688fd	-0.2627639
194	0xbd2ce079	-0.04220626
195	0x3d9b6ff2	0.07589711
196	0xbda51117	-0.080599
197	0xbe6ad1be	-0.22931573
198	0xbe0d7b37	-0.13816534
199	0xbe836506	-0.25663012
200	0x3d1848a6	0.037178658
201	0xbbe886ff	-0.007096171
202	0xbc061084	-0.008182649
203	0xbcc3c798	-0.023898885
204	0x3d0e9ba1	0.034816388
205	0xbc6d99d2	-0.014502006
206	0xbe12c392	-0.14332417
207	0xbd8d3b78	-0.068961084
208	0xbe170a98	-0.14750135
209	0xbca3d418	-0.019998595
210	0xbca9f772	-0.020747874
211	0x3cdee20b	0.027207395
212	0xbdb32028	-0.08746368
213	0x3d4d11b5	0.050065715
214	0xbe0f4ef9	-0.1399497
215	0x3e2d2e1f	0.16912125
216	0xba522f70	-0.0008017933
217	0xbd8d899e	-0.06911014
218	0xbcd02836	-0.0254098
219	0xbe116bcf	-0.14201282
220	0x3c830261	0.015992345
221	0x3de30053	0.11084046
222	0x3d9a101d	0.075226046
223	0xbd3240fc	-0.043519005
224	0x3d4f0d3b	0.050549727
225	0xbdce2428	-0.1006549
226	0xbd6ac08d	-0.057312537
227	0xbd08b2db	-0.033373695
228	0xbd6c91c4	-0.0577562
229	0x3df90a60	0.12160182
230	0xbd828dc3	-0.06374695
231	0xbe077180	-0.1322689
232	0xbd229b2b	-0.03969876
233	0x3df0327e	0.117283806
234	0x3d8eac56	0.06966464
235	0xbb65decc	-0.0035075424
236	0xbd500280	-0.050783634
237	0xbe29b9d0	-0.16574788
238	0xbcbecb5c	-0.023290329
239	0xbc7f1933	-0.015569973
240	0x3d60d4ce	0.054890446
241	0xbce42fae	-0.027854767
242	0xbe179b1e	-0.14805266
243	0x3c752c00	0.014964104
244	0x3e12d4a1	0.14338924
245	0x3d68c62b	0.056829613
246	0x3dbc0af9	0.0918178
247	0x3b97732a	0.004621883
248	0xbd2e7ab5	-0.04259749
249	0x3bbf96d1	0.005846836
250	0x3d6b5bde	0.05746066
251	0x3d992896	0.07478444
252	0xbd2e3130	-0.042527378
253	0xbbe0b5f4	-0.006857628
254	0xbcf1b4ba	-0.029505122
255	0xbcbd8ac1	-0.023137452

weight f4 [1, 100]
0	0xbce8c601	-0.028414728
1	0xbdcf3a0e	-0.10118495
2	0x3def5424	0.116859704
3	0xbd1ff38f	-0.039050635
4	0xbdfccb40	-0.12343454
5	0xbdc70294	-0.097172886
6	0x3c173df3	0.009231078
7	0xbdec468b	-0.115368925
8	0x3d51f119	0.05125532
9	0xbccc9778	-0.02497457
10	0x3b2132a4	0.0024596835
11	0x3cbc8cd6	0.023016375
12	0x3c047ba7	0.008086122
13	0x3dcb0a3d	0.09914062
14	0xbd895c8a	-0.067071036
15	0xbdeecd70	-0.11660278
16	0x3e8997b2	0.26873547
17	0xbd82b759	-0.06382627
18	0x3e52a3c2	0.20570281
19	0x3dd083ad	0.10181365
20	0xbd530ee8	-0.051527888
21	0x3e70fc71	0.23533799
22	0x3d1d878b	0.038459342
23	0x3d899eca	0.0671974
24	0x3d22da10	0.03975874
25	0x3d661f59	0.05618224
26	0x3e15de2a	0.1463553
27	0x3e5eda11	0.21762873
28	0x3d83180f	0.06401073
29	0xbd915a6c	-0.07097325
30	0x3e67797d	0.22604938
31	0x3e3d41a4	0.18482071
32	0xbcd06e32	-0.02544317
33	0xbbf57b2e	-0.007491491
34	0xb8f3a01c	-0.00011616966
35	0x3d506c60	0.050884604
36	0x3d5a926f	0.053362306
37	0x3e4dd5a5	0.2010103
38	0x3e5c4857	0.2151197
39	0xbd4d3bed	-0.050105978
40	0xbc214f14	-0.009845514
41	0xbd6a293c	-0.05716823
42	0x3e53d0bc	0.20685095
43	0x3dcdb653	0.10044541
44	0xbe6f7316	-0.23383746
45	0xbe0d01fa	-0.13770285
46	0xbe1758dd	-0.14779992
47	0x3de3a5b1	0.111155875
48	0x3dca2d74	0.09871951
49	0xbca4aa9a	-0.02010088
50	0xbe5419d1	-0.20712973
51	0xbc491948	-0.012274094
52	0x3e1d8539	0.15382852
53	0x3d9d35fb	0.076763116
54	0xbcc50154	-0.024048485
55	0xbd5397c9	-0.051658425
56	0xbd59477e	-0.053046696
57	0x3d848b7d	0.06471918
58	0xbd826591	-0.063670285
59	0xbc33c22c	-0.010971587
60	0x3c999aa4	0.018750496
61	0x3e06ff0d	0.13183232
62	0xbcb1a645	-0.021685729
63	0xbcce4866	-0.025181007
64	0x3e43a072	0.19104174
65	0xbdd84756	-0.10560481
66	0x3c8a4c5a	0.01688211
67	0x3d8d6293	0.06903567
68	0x3e1a947a	0.15095702
69	0x3cb01138	0.021492586
70	0x3db0aad4	0.08626333
71	0x3e0a7651	0.13521697
72	0xbccdf2f6	-0.025140267
73	0xbce2d9b9	-0.027691709
74	0x3d06abef	0.032878812
75	0x3c21ba18	0.009871028
76	0xbdd363fe	-0.10321806
77	0x3e39be73	0.18139057
78	0x3df6c413	0.12049117
79	0xbcb90b5d	-0.022588426
80	0xbe3f54e7	-0.18684731
81	0x3c5e95ca	0.013585517
82	0xbc8fda5d	-0.017560178
83	0x3bd2c504	0.0064321775
84	0xbd7f67df	-0.06235492
85	0x3e515d27	0.20445691
86	0x3d1a99d0	0.037744343
87	0xbc66c430	-0.014084861
88	0xbc25db8a	-0.010123143
89	0xbd56c8a9	-0.05243746
90	0xbea71bc1	-0.32638362
91	0xbd23673d	-0.039893378
92	0xbdead582	-0.11466505
93	0x3bd09d76	0.006366427
94	0x3d570eb1	0.052504245
95	0xbd387558	-0.045033783
96	0xbe4e1414	-0.20124847
97	0xbdc7713b	-0.09738394
98	0x3b7b0423	0.0038302026
99	0xbd46ee82	-0.048567303

hidden_cell f4 [1, 1, 100]
0	0xbc2b5831	-0.010458038
1	0x3e1615d1	0.1465676
2	0xbd34ec4b	-0.04417066
3	0xbc5a2386	-0.0133141335
4	0x3d04b298	0.032396883
5	0xbc65665f	-0.014001458
6	0x3d90e83e	0.07075547
7	0x3cb3a2ec	0.021928273
8	0xbc8e4bdb	-0.017370155
9	0x3d9f5893	0.07780566
10	0x3bfe5ae9	0.007762302
11	0xbda5780d	-0.080795385
12	0x3c4f62ee	0.012657864
13	0x3c2b0888	0.010439046
14	0xbe42f808	-0.19039929
15	0xbe50e290	-0.20398927
16	0xbefa3685	-0.4886972
17	0x3d2618c9	0.04055098
18	0x3da82e6e	0.08211981
19	0xbe7dc5fb	-0.24782555
20	0xbe8e0ce0	-0.27744198
21	0x3d2c2242	0.04202486
22	0xbdd09e76	-0.10186474
23	0xbc1f327c	-0.009716626
24	0x3e23d8e7	0.1600071
25	0xbd1f7c77	-0.03893706
26	0xbf08d6d0	-0.5345278
27	0xbb8d5601	-0.004313231
28	0x3e3de115	0.18542893
29	0x3d2647c4	0.040595785
30	0xbe861cc2	-0.26193815
31	0xbf051c8f	-0.519967
32	0xba3c2b30	-0.00071780663
33	0x38fd6fa1	0.000120847726
34	0x3ead8b20	0.33895206
35	0x3b8ba93d	0.004262118
36	0xbc49470d	-0.012285006
37	0x3e39d46d	0.1814744
38	0xbe263b04	-0.1623345
39	0xbd3d2974	-0.04618211
40	0xbcd2b5a0	-0.025721371
41	0xbb8b1948	-0.004244957
42	0x3edee9a5	0.43537632
43	0x3c997b0b	0.01873543
44	0x3e4f138c	0.202223
45	0xbf0e5f67	-0.5561432
46	0x3d1ce430	0.038303554
47	0x3e9ff15c	0.3123883
48	0xbd0fea67	-0.035135653
49	0x3c3ec333	0.011643219
50	0x3d53d63f	0.051717993
51	0x3c88627c	0.016648524
52	0xbeef932f	-0.4679198
53	0x3dc7b6ca	0.09751661
54	0xbc9bb85e	-0.019008812
55	0xbdbe087b	-0.09278961
56	0xbc97cefe	-0.018531319
57	0xbdb72199	-0.08941955
58	0x3d37cb59	0.04487166
59	0x3c898704	0.016788013
60	0x3b120ba0	0.002228476
61	0xbdef34cf	-0.11679994
62	0xbcd3f103	-0.02587176
63	0x3effc522	0.49955088
64	0xbe0d5a54	-0.13803989
65	0xbb6ef6d7	-0.0036463046
66	0xbdf95265	-0.12173919
67	0x3dfd9ccb	0.123834215
68	0x3d17d473	0.03706784
69	0x3d97ac9f	0.07405972
70	0xbc76b43c	-0.01505762
71	0xba92086f	-0.001114143
72	0xbd758b14	-0.05994709
73	0x3bc18226	0.0059054075
74	0xbc8425e4	-0.016131349
75	0xbbb7555b	-0.005594892
76	0xbdfe2b62	-0.12410618
77	0xbe660391	-0.22462298
78	0xbc4ead35	-0.012614538
79	0x3bf7d642	0.0075633833
80	0x3e0c6e4e	0.13713953
81	0xba9d9945	-0.0012023827
82	0x3ed1ea8f	0.40999267
83	0x3d09d3fc	0.03364943
84	0xbd949fd4	-0.07257047
85	0xbd4957e3	-0.04915608
86	0xbe91be12	-0.28465325
87	0xbdc66d0d	-0.096887685
88	0x3e3a52de	0.18195674
89	0x3dd51f91	0.104064114
90	0x3e5f905a	0.2183241
91	0x3d6a8fd9	0.05726609
92	0xbcaf492e	-0.0213972
93	0xbec2d895	-0.38055864
94	0xbcb8e123	-0.022568291
95	0x3bba9943	0.0056945398
96	0xbca6ccee	-0.02036139
97	0xbd19acb6	-0.037518226
98	0xbe5c940d	-0.21540852
99	0x3d2a760b	0.04161648

hidden_cell f4 [1, 1, 100]
0	0xbe23b561	-0.1598716
1	0x3e72e4db	0.23720114
2	0xbe35dd03	-0.1776009
3	0xbe046f74	-0.12933141
4	0x3db5be08	0.08874136
5	0xbe5f6e61	-0.2181945
6	0x3e73eb79	0.23820294
7	0x3dbab43c	0.09116408
8	0xbda0abf6	-0.07845299
9	0x3e5b1a18	0.21396673
10	0x3da463ca	0.08026846
11	0xbea16efd	-0.3152999
12	0x3d037ce1	0.032101516
13	0x3dadd2eb	0.08487495
14	0xbf1a0e00	-0.6017761
15	0xbf15f921	-0.58583266
16	0xbfc78e94	-1.5590386
17	0x3e5ed054	0.21759158
18	0x3e9c9d8c	0.3058895
19	0xbfa2c627	-1.2716721
20	0xbecd17ce	-0.40057224
21	0x3e436e3e	0.19085023
22	0xbeaab991	-0.333447
23	0xbdfce190	-0.1234771
24	0x3ea840ad	0.32861844
25	0xbeb5be28	-0.3549664
26	0xbf30fd94	-0.6913693
27	0xbdfd8b1c	-0.12380049
28	0x3f1d0b58	0.61345434
29	0x3e2e5f40	0.17028522
30	0xbfbd1178	-1.4770956
31	0xbf62c3ce	-0.88580024
32	0xbbbf65f6	-0.005841012
33	0x3a5ee6f8	0.0008503045
34	0x3ef99411	0.48745778
35	0x3e22dc9d	0.1590447
36	0xbe212034	-0.15734941
37	0x3eb92d0d	0.36167184
38	0xbf2dd052	-0.67895997
39	0xbe18997b	-0.14902298
40	0xbe9d45bf	-0.30717275
41	0xbe3183fb	-0.17335503
42	0x3f17c3bd	0.5928305
43	0x3dbe3330	0.09287107
44	0x3f1e98eb	0.61952084
45	0xbf382f10	-0.7194681
46	0x3e29b60a	0.16573349
47	0x3f1d13b0	0.61358166
48	0xbdd9aa7d	-0.10628221
49	0x3d59242e	0.05301302
50	0x3da9ebc2	0.0829692
51	0x3e467970	0.19382262
52	0xbf9c9c9e	-1.2235296
53	0x3e960c66	0.29306334
54	0xbd3c3980	-0.045953274
55	0xbe82501a	-0.25451738
56	0xbde1e318	-0.11029643
57	0xbebaa6eb	-0.36455473
58	0x3d6c500a	0.05769352
59	0x3e548773	0.20754795
60	0x3d454f79	0.048171494
61	0xbe20b46b	-0.15693824
62	0xbe5156f5	-0.20443328
63	0x3f3833f5	0.7195428
64	0xbf10d300	-0.5657196
65	0xbdb0ef66	-0.08639412
66	0xbebc2a58	-0.36751056
67	0x3eb466a3	0.35234556
68	0x3e5d224c	0.21595114
69	0x3e2329c6	0.15933904
70	0xbd9c5792	-0.0763389
71	0xbb03a780	-0.0020088851
72	0xbe9588e4	-0.29206002
73	0x3c716458	0.0147333965
74	0xbdf61a5e	-0.12016748
75	0xbca8947a	-0.020578612
76	0xbead5bbe	-0.33859056
77	0xbee48740	-0.44634438
78	0xbe538817	-0.20657383
79	0x3cfa869c	0.030581765
80	0x3ef5a266	0.47975463
81	0xbc79e997	-0.015253446
82	0x3fc6a9ba	1.5520546
83	0x3ea4f772	0.32220036
84	0xbe449a0f	-0.19199394
85	0xbe06ba7c	-0.13157076
86	0xbf08e60a	-0.5347601
87	0xbe934efb	-0.28771195
88	0x3edb6568	0.42850804
89	0x3de73eeb	0.112912975
90	0x3e87c629	0.26518372
91	0x3e9ccaca	0.30623466
92	0xbd832442	-0.064034
93	0xbf171736	-0.5901979
94	0xbe018ec0	-0.12652111
95	0x3cd3508a	0.02579524
96	0xbd15b98c	-0.036553904
97	0xbe4067da	-0.18789616
98	0xbf0efaff	-0.5585174
99	0x3e641a3e	0.22275636

hidden f4 [1, 1, 100]
0	0x00000000	0.0
1	0x00000000	0.0
2	0x00000000	0.0
3	0x00000000	0.0
4	0x00000000	0.0
5	0x00000000	0.0
6	0x00000000	0.0
7	0x00000000	0.0
8	0x00000000	0.0
9	0x00000000	0.0
10	0x00000000	0.0
11	0x00000000	0.0
12	0x00000000	0.0
13	0x00000000	0.0
14	0x00000000	0.0
15	0x00000000	0.0
16	0x00000000	0.0
17	0x00000000	0.0
18	0x00000000	0.0
19	0x00000000	0.0
20	0x00000000	0.0
21	0x00000000	0.0
22	0x00000000	0.0
23	0x00000000	0.0
24	0x00000000	0.0
25	0x00000000	0.0
26	0x00000000	0.0
27	0x00000000	0.0
28	0x00000000	0.0
29	0x00000000	0.0
30	0x00000000	0.0
31	0x00000000	0.0
32	0x00000000	0.0
33	0x00000000	0.0
34	0x00000000	0.0
35	0x00000000	0.0
36	0x00000000	0.0
37	0x00000000	0.0
38	0x00000000	0.0
39	0x00000000	0.0
40	0x00000000	0.0
41	0x00000000	0.0
42	0x00000000	0.0
43	0x00000000	0.0
44	0x00000000	0.0
45	0x00000000	0.0
46	0x00000000	0.0
47	0x00000000	0.0
48	0x00000000	0.0
49	0x00000000	0.0
50	0x00000000	0.0
51	0x00000000	0.0
52	0x00000000	0.0
53	0x00000000	0.0
54	0x00000000	0.0
55	0x00000000	0.0
56	0x00000000	0.0
57	0x00000000	0.0
58	0x00000000	0.0
59	0x00000000	0.0
60	0x00000000	0.0
61	0x00000000	0.0
62	0x00000000	0.0
63	0x00000000	0.0
64	0x00000000	0.0
65	0x00000000	0.0
66	0x00000000	0.0
67	0x00000000	0.0
68	0x00000000	0.0
69	0x00000000	0.0
70	0x00000000	0.0
71	0x00000000	0.0
72	0x00000000	0.0
73	0x00000000	0.0
74	0x00000000	0.0
75	0x00000000	0.0
76	0x00000000	0.0
77	0x00000000	0.0
78	0x00000000	0.0
79	0x00000000	0.0
80	0x00000000	0.0
81	0x00000000	0.0
82	0x00000000	0.0
83	0x00000000	0.0
84	0x00000000	0.0
85	0x00000000	0.0
86	0x00000000	0.0
87	0x00000000	0.0
88	0x00000000	0.0
89	0x00000000	0.0
90	0x00000000	0.0
91	0x00000000	0.0
92	0x00000000	0.0
93	0x00000000	0.0
94	0x00000000	0.0
95	0x00000000	0.0
96	0x00000000	0.0
97	0x00000000	0.0
98	0x00000000	0.0
99	0x00000000	0.0

hidden f4 [1, 1, 100]
0	0x00000000	0.0
1	0x00000000	0.0
2	0x00000000	0.0
3	0x00000000	0.0
4	0x00000000	0.0
5	0x00000000	0.0
6	0x00000000	0.0
7	0x00000000	0.0
8	0x00000000	0.0
9	0x00000000	0.0
10	0x00000000	0.0
11	0x00000000	0.0
12	0x00000000	0.0
13	0x00000000	0.0
14	0x00000000	0.0
15	0x00000000	0.0
16	0x00000000	0.0
17	0x00000000	0.0
18	0x00000000	0.0
19	0x00000000	0.0
20	0x00000000	0.0
21	0x00000000	0.0
22	0x00000000	0.0
23	0x00000000	0.0
24	0x00000000	0.0
25	0x00000000	0.0
26	0x00000000	0.0
27	0x00000000	0.0
28	0x00000000	0.0
29	0x00000000	0.0
30	0x00000000	0.0
31	0x00000000	0.0
32	0x00000000	0.0
33	0x00000000	0.0
34	0x00000000	0.0
35	0x00000000	0.0
36	0x00000000	0.0
37	0x00000000	0.0
38	0x00000000	0.0
39	0x00000000	0.0
40	0x00000000	0.0
41	0x00000000	0.0
42	0x00000000	0.0
43	0x00000000	0.0
44	0x00000000	0.0
45	0x00000000	0.0
46	0x00000000	0.0
47	0x00000000	0.0
48	0x00000000	0.0
49	0x00000000	0.0
50	0x00000000	0.0
51	0x00000000	0.0
52	0x00000000	0.0
53	0x00000000	0.0
54	0x00000000	0.0
55	0x00000000	0.0
56	0x00000000	0.0
57	0x00000000	0.0
58	0x00000000	0.0
59	0x00000000	0.0
60	0x00000000	0.0
61	0x00000000	0.0
62	0x00000000	0.0
63	0x00000000	0.0
64	0x00000000	0.0
65	0x00000000	0.0
66	0x00000000	0.0
67	0x00000000	0.0
68	0x00000000	0.0
69	0x00000000	0.0
70	0x00000000	0.0
71	0x00000000	0.0
72	0x00000000	0.0
73	0x00000000	0.0
74	0x00000000	0.0
75	0x00000000	0.0
76	0x00000000	0.0
77	0x00000000	0.0
78	0x00000000	0.0
79	0x00000000	0.0
80	0x00000000	0.0
81	0x00000000	0.0
82	0x00000000	0.0
83	0x00000000	0.0
84	0x00000000	0.0
85	0x00000000	0.0
86	0x00000000	0.0
87	0x00000000	0.0
88	0x00000000	0.0
89	0x00000000	0.0
90	0x00000000	0.0
91	0x00000000	0.0
92	0x00000000	0.0
93	0x00000000	0.0
94	0x00000000	0.0
95	0x00000000	0.0
96	0x00000000	0.0
97	0x00000000	0.0
98	0x00000000	0.0
99	0x00000000	0.0
